Benchmark/data/CLS/Andi/3D/AdapTransformer/AdapTransformer_model.pth (torch, 425834 bytes, 40 tensors)

projs.0.weight f4 [64, 32]
00000000: a9f9 57bc 0d53 543a 28cf 3e3a eed0 8bbd
00000010: 77e9 98bd 70a2 0abc 73d0 8b3a 09db 9e3c
00000020: a60f 5fbb 6a78 e1bc 93a4 163d 2f17 a9bd
00000030: 00bb 133a b0a9 2a3d 84f9 1a3d 6554 463c
00000040: a696 a5bd 8d00 3abd 9991 9fbc a645 973c
00000050: f9a3 843d 38b5 133a d2b4 8cbd e133 b73c
00000060: 0349 7abc 8272 85bc 0431 753d 5f75 ae3c
00000070: f993 7ebd 6f59 35bd 69ce 8f3c 607a 07be
00000080: e58a c83d b742 c4ba 9ceb bcba 11a8 4ebb
00000090: aa1f a33d 6e0e d83c 5f5a d3bc e069 cd3c
000000a0: e94a dd3c 27e4 573c c610 9bba e16a cd3c
000000b0: a01d 67ba dcdf f03b 131d 213c a228 59bc
000000c0: 654e 803c 41df d3bc a618 f43c 3450 06bd
000000d0: 9b20 d9bc 061d 67ba c7e4 3fbc ed57 66bd
000000e0: 20d1 9bbc 6ea0 b6bc 9327 9e3d 76fe 913c
000000f0: fd62 0dbc 7c75 d73c f883 473c f61a 973d
00000100: 26cd 1c3e eaaa 2eb9 91d5 3db9 44a3 a03b
00000110: cffa 91bd 228f f13b 9955 f53c 78b7 783d
00000120: e9f9 a83c c65b 0b3d 0f63 2a3d b351 b33d
00000130: acab abb8 3feb b13c aa8b 8d3c 0f72 093d
00000140: ba64 4c3c 5228 b83c 0f1b 50bc 1221 62bd
00000150: 36b8 7c3c c0a1 abb8 bf07 8e3c 0360 5ebb
00000160: df0f 793c 2840 e23b ed3c e2bc 7f5d 1c3c
00000170: 56b3 293d 0088 9ebb 80f1 6fbc 1f2d 8d3c
00000180: 4cc0 e13c cd4f 96ba 4392 9dba 0763 fabc
00000190: c8c7 243b 8132 423d bd46 77bc 675a 3fbc
000001a0: 63c8 44bc 131f 50bd 85bd c7bc 2ce2 64bc
000001b0: 3bef 9eba 98f4 edbb ce82 cbbb b35e 3fbd
000001c0: 5b00 fdbc 1dbb b13a 39e0 433d 58b1 803d
000001d0: 2c98 8fbd eced 9eba c652 9abd aed9 9bbc
000001e0: 962a 04bd 610f 05bd 0d91 593d bf4a 1b3d
000001f0: 4fb0 2bbb 216e ac39 b478 7d3d 1573 a9bc
00000200: 3e13 9dbd 51a2 d539 cef3 e039 f134 02bd
00000210: c147 3b3c 47dd a53c 9881 d93c 2cea dabb
00000220: 28fb 453c f5ad ae3b 00d6 a53c ced7 d5bb
00000230: dce6 9c39 6488 163d 0627 163d ea5c 713b
00000240: 763c 31bd 98c0 023d fb47 44bd 339c 123d
00000250: 11a1 a3bd 811d 9d39 c4b8 1cbc 6955 0b3d
00000260: a114 5cbb 4969 a5ba 8460 83bc f823 5a3c
00000270: 2672 95bc 0d12 06bb 5fc0 ae3c 88ea cbbc
00000280: 65a8 f8bd 665e 63ba 2b29 61ba da27 a1bd
00000290: 496c 503d 49a8 d83c b07c 16bd 45c9 0cbb
000002a0: 3e6b 15bd 98c5 d2bc a608 80bc 1c03 a6bc
000002b0: 2bd8 0fba 2b6e 02bd ab92 edbc 6b58 45bd
000002c0: 4d22 9a3c 4795 f43b 7d47 893c cc60 b83d
000002d0: 8e75 05bd 74dc 0fba bd66 103d 5bc3 b53c
000002e0: 65ba ebbc 496c c9bc 6580 153d aa42 973d
000002f0: a775 b23c 5c81 0bbd a12a 3a3d fcd4 26bd
00000300: 96dc ffbd 95e4 1d3a 8b8f 1d3a 64fa 5e3c
00000310: f385 f2bb 1de2 84bb 497f b2bc 261f 063d
00000320: 0142 01bc ed69 0f3d 1eaf 323c 8d1f c9bc
00000330: 45b9 1939 8001 79bc 4e7a 70bc 5c31 df3c
00000340: 3b86 33bc 6669 bfbc ba28 ebb9 3c93 703c
00000350: d351 063d d0d1 1939 658d 043c 5561 1c3d
00000360: c6e1 643c a261 d43c d816 c6bc 2959 963c
00000370: 9add 413c b532 0ebd 8114 ae3c f628 5bbd
00000380: 2e47 873d e0c2 bdba 4bd2 c0ba a31a c93d
00000390: 5cc3 90bc 2901 cd3d 71d5 ffbc dc00 fbbb
000003a0: 3af6 9bbd cd36 3c3c 6d03 dfbc 17e9 cc3d
000003b0: f023 93ba 3f6f 9cbc 3ed2 86bc f555 3d3c
000003c0: 9b87 833d cff6 dabd 9cac 7d3d 9033 e83b
000003d0: 7e76 963d 3c22 93ba 4983 61bd 694b 5dbd
000003e0: 41d1 c1bc f600 eabc 395c 3f3d 0603 35bd
000003f0: 9a36 0fbd 801a bebd 03ad 63bd 42dc 953c
-0.013182082 0.0008099534 0.00072787935 -0.068269596 -0.07466405 -0.00846158 0.0010666981 0.019391553
-0.0034036427 -0.027523238 0.036778044 -0.08256375 0.000563547 0.041665733 0.037835613 0.012105082
-0.080853745 -0.04541068 -0.019478606 0.018465828 0.06476588 0.00056346087 -0.06870426 0.022363605
-0.015276196 -0.016289953 0.059861198 0.021296201 -0.062152836 -0.044274744 0.017554479 -0.13230276
0.09792117 -0.0014973496 -0.0014413479 -0.003153328 0.07965024 0.026374068 -0.025799928 0.0250749
0.027013259 0.013176954 -0.001183056 0.025075378 -0.0008816365 0.007350905 0.009833592 -0.0132543165
0.015662381 -0.025863292 0.02979691 -0.03279133 -0.026504805 -0.00088162755 -0.01171226 -0.056236196
-0.019020617 -0.022293296 0.07722392 0.017821532 -0.008629558 0.026301138 0.01217746 0.07378189
0.15312633 -0.00016657604 -0.00018104004 0.0049022753 -0.07127916 0.007371799 0.029948043 0.060721844
0.020626979 0.03402307 0.041598376 0.08755817 -8.185892e-05 0.02171862 0.017278511 0.03355604
0.012475187 0.022480164 -0.012701764 -0.05520732 0.015424779 -8.184044e-05 0.017337678 -0.003393174
0.015201538 0.0069046207 -0.027616942 0.009543776 0.041430794 -0.00483799 -0.01464498 0.01723343
0.027557515 -0.0011467874 -0.0012021739 -0.030564798 0.0025143493 0.047411446 -0.015092549 -0.011679268
-0.012010667 -0.050810885 -0.024382362 -0.013969939 -0.001212574 -0.007261824 -0.0062106615 -0.04672117
-0.030883959 0.0013559792 0.047821257 0.06283826 -0.07011446 -0.001212535 -0.07535319 -0.019024696
-0.032267176 -0.03248537 0.053116847 0.03791308 -0.0026197617 0.0003288845 0.06188269 -0.020684758
-0.07669686 0.0004074746 0.00042906258 -0.03178877 0.011430682 0.020247115 0.026551053 -0.0066807475
0.012083806 0.005330796 0.020243645 -0.00652597 0.00029926642 0.036751166 0.03665831 0.0036829063
-0.04327055 0.031921953 -0.04792021 0.035793494 -0.07989705 0.00029967356 -0.009565536 0.034017
-0.0033581632 -0.0012619878 -0.016037233 0.01331424 -0.018242907 -0.0020457536 0.021331964 -0.024892107
-0.12141494 -0.0008673429 -0.00085892034 -0.07868929 0.05088452 0.026447432 -0.036740005 -0.002148227
-0.036479227 -0.025728986 -0.015629124 -0.020265155 -0.00054872286 -0.031843346 -0.0290006 -0.048180025
0.018815184 0.0074640843 0.016757721 0.090028375 -0.032582812 -0.0005487867 0.03525423 0.02218788
-0.028775403 -0.024587767 0.0364994 0.07385762 0.021784617 -0.034058914 0.04545081 -0.04073046
-0.12493245 0.0006023136 0.0006010464 0.013609502 -0.007401222 -0.004055275 -0.02178921 0.03274455
-0.007889272 0.035013128 0.010906009 -0.024551177 0.00014660235 -0.0151981115 -0.014677597 0.027245216
-0.010957296 -0.023365688 -0.00044853037 0.014683541 0.032792877 0.00014669378 0.008090352 0.03817876
0.013969844 0.025925461 -0.024180815 0.018353062 0.011832619 -0.034716327 0.021250011 -0.05350586
0.06605373 -0.0014477633 -0.001471111 0.09819534 -0.01767128 0.10009987 -0.031229706 -0.0076600146
-0.07615323 0.011487675 -0.027223313 0.10005396 -0.001122592 -0.019096015 -0.016457673 0.011556138
0.06422349 -0.10691606 0.06193219 0.007086225 0.07346819 -0.0011225413 -0.055056844 -0.054026995
-0.02365935 -0.028564911 0.04671881 -0.044192336 -0.03496418 -0.09282398 -0.05558492 0.018293504

projs.0.bias f4 [64]
00000000: 842f 2dbd 27d1 01bd 3c60 c0bc 18bf 5bbd
00000010: 0eaa 2b3c 2cbc a6bc c36f 8b3a aa8c 9c3b
00000020: b22c 83bb e6b9 fa3c cf56 f2bc 3016 cf3a
00000030: 08b9 b7bd 2ffc 90bc 3972 a9bd 35ae 8d3d
00000040: 2c2e a1bd 3b32 393c c4d1 1dbe e64a b0bd
00000050: 34b7 12be bc29 10be e2b5 b0bd f660 c9bd
00000060: dd68 64bd 7b9c 22be 0086 dfbd 7ac6 cfbd
00000070: b9c1 a6bd bd8c cbbd baa2 5cbd d2bd 9cbd
00000080: a179 a1bd 1388 1bbe 11ca 62bd c9ea 5bbd
00000090: 12ff ecbc e4b9 51bd 52d2 90bd 7bfb eebc
000000a0: 850c 9f3b 484c 8dbd 9047 e9bc 97f3 773d
000000b0: 9ea6 89bd 5b26 6d3e 5d39 893c 7b0d 42be
000000c0: 164b a7bc 40fa 07bd 3d65 d93b d561 373d
000000d0: 1550 863d 002c 5fbd b54b 92bd 4004 39bd
000000e0: bfe8 6a3c dcda 86bc 37b7 b33c 1d8d 28bd
000000f0: d9bc 4fbc a454 81bc a08f 15bd 440b 2f3d
-0.042281643 -0.031693604 -0.023483388 -0.053649038 0.010477556 -0.0203534 0.0010638166 0.0047775107
-0.004003131 0.030606221 -0.02958241 0.0015799459 -0.08970839 -0.017698376 -0.08273739 0.06917993
-0.07870135 0.01130348 -0.1541205 -0.08608036 -0.14327699 -0.1407842 -0.086284414 -0.09832947
-0.055764068 -0.15880005 -0.1091423 -0.10145278 -0.081424184 -0.09938953 -0.053866126 -0.07653393
-0.07884527 -0.15188627 -0.055368487 -0.053690705 -0.02893022 -0.05120267 -0.070713654 -0.02917265
0.0048537874 -0.06899315 -0.028476506 0.06053504 -0.06721233 0.23159163 0.016750986 -0.18950455
-0.020421546 -0.03319764 0.006634383 0.044771034 0.06558243 -0.05448532 -0.07143346 -0.04517007
0.014337718 -0.016461782 0.02193795 -0.0411502 -0.012679302 -0.01578743 -0.036513925 0.042735353

encoder_layer.self_attn.in_proj_weight f4 [192, 64]
00000000: 5774 8f3d bc91 77bd 3bc5 c43d 4162 bf3d
00000010: efdd 243c 2d63 43bd 9409 c13d 4a61 8cbd
00000020: 812c 7bbd f90c eaba d755 e63c f6c8 203d
00000030: b974 713d 30d5 d4bc c0de 193e 35db 9f3c
00000040: 6da8 89bc 2589 dd3d 2dcb 933d d7eb c23d
00000050: 5a77 363d b230 983d fd9a 073e 2559 563d
00000060: 8511 a6bd 4988 643d 834a 34bd e535 efbc
00000070: a524 903c c7ca 653d fc01 fc3d 9456 87bc
00000080: 8638 0b3e 824f ba3c f39d 34bd c242 073e
00000090: 0f99 83bc a920 023d b753 2cbd afba 053c
000000a0: 3ca6 e83c ed69 15be e6a5 973d 92c3 10be
000000b0: e0d3 e53d 03d4 b9bd f609 603d 1a8f d43d
000000c0: 5496 f2bd e495 b6bd 57e6 f93d d2e2 febd
000000d0: fdc8 cdbc 3e5b dbbd bfd9 6fbd a6f4 8b3c
000000e0: 47bc 433d e00b 73bd 1134 e8bb 4960 1b3e
000000f0: 4680 61bc 1d0e c4bd b476 55bd 7881 de3d
00000100: 48a1 40bc ddbf d9bd 7691 01bd 4ef7 1cbd
00000110: e569 f73d bd8f 5fbd efc2 8c3d 1a08 0fbd
00000120: 3495 023d 6cf5 b63d 99ce be3d aa9d 8fbd
00000130: 1f19 cb3d ea88 e0bc 8f01 a4bc d3f8 0f3d
00000140: 0f1b 92bc 126a 103e 0a70 323d 5b60 fc3d
00000150: 5d42 25bb 6268 e33d 0687 e6bc a04c f9bd
00000160: 6c0b d53b a205 073e c9ac c03d 5565 973d
00000170: b7bf e83d 2de4 c43d 8ad8 c2bd 7d15 a8bd
00000180: 1c05 f43d 23b6 803d 9aec 043d 2cd3 c03d
00000190: bb5f a6bd 4153 1c3e c2be 1b3e 48b6 fd3d
000001a0: 42c7 08be 8cf4 783d 678c 063e 855b 073e
000001b0: 9eec 0ebe c695 b1bd d83c 0bbd fe80 813d
000001c0: 3101 0bbe 1bf5 843d 1b9a bbbd 623a 8ebd
000001d0: b6f3 39bd e62d 133e b49f ec3d 1731 b1bd
000001e0: b41e 433d 0745 f4bd a083 163c 0b30 5c3c
000001f0: a84b 5cbd 6118 1b3e 11ab a03b f6ae b5bd
00000200: 2606 d23b 5bca e33d 6afa 96bd 6557 f13d
00000210: d19f b73c 61f5 aabc 9145 d0bd 5ff8 ea3d
00000220: ee07 a9bd bb9b e83d fdfc df3c c222 a53d
00000230: 5b1c 1cbe db5a 19be a5d1 46bb 91e6 58bd
00000240: 8a66 08be a9ef 643d 0da9 3c3d b964 023e
00000250: 6c88 6cbd 557d 0d3e 93cb 29bc abfe bbbd
00000260: 79a0 343d 5451 f1bd cce5 e9bd 80e4 db3d
00000270: 9050 a0bd a054 0a3e 530d b4bd b96e f23d
00000280: 5a1b a4bc 14cb d7bd 1b4b 88bc 51e5 e2bd
00000290: a146 ffbc 86a3 dfbd 8c14 643d 9e22 bdbd
000002a0: b3fb a0bd f1fe ccbb b38d 0f3e 44bd 153e
000002b0: 7a9c 8c3b 6141 3d3d bc7a f5bc 72dc e23c
000002c0: b9c3 b43d a9e8 6e3d 5ca5 5f3d 39bd 083e
000002d0: da41 35bd 9f8a cbbc 2060 cabd 106a 083e
000002e0: 6476 0e3e c07a d5bd a514 0b3e 11fc f23d
000002f0: 24ec fdbd e54e a0bd e8ba be3b 4a8c 033e
00000300: 94df 12be e70a 04be 78f5 463a 5ebf e03d
00000310: 97a6 e7bd 35db ec3c cfa3 ef3d 137b 07bd
00000320: d1b9 5fbc 08da c13d 4eaa 023e 849c babc
00000330: 3a0c c13d 9024 0bbe 2f69 113d d0f3 c4bd
00000340: e531 3b3d ff4c 053e 3eef 85bd 7a39 f0bd
00000350: ac41 0a3c b86d d6bd f664 ce3d d994 35bd
00000360: b476 233c 553f 92bd e2ba f9bd 5fa8 0b3e
00000370: 3a91 0abd 2f47 d4bd aff4 033d 3af9 95bc
00000380: 5f83 a13d f119 03be f5c2 c8bd 14fe 48bd
00000390: 73d7 8cbd 3ef2 e0bd ecbc 023e f619 0e3e
000003a0: 3a3d bd3d 86da 0abe a9c8 9c3d 427d d4bd
000003b0: 62c3 c0bd ba59 4d3a f340 5fbc 3186 4e3d
000003c0: 1132 82bd dbd8 f0bd 9f0d 15be d5e3 da3c
000003d0: 4bd5 b5bd 75fc 3d3d f0b4 943d fc3c cebd
000003e0: 4912 dfbd 23c7 463d d099 f93c ad77 843d
000003f0: 4eab 02be e029 03be 4f24 523c 4de4 f4bd
0.07004612 -0.060441718 0.09607931 0.09344912 0.010062679 -0.047702003 0.09425655 -0.06854494
-0.06132174 -0.0017856649 0.028117104 0.03925415 0.058949206 -0.025980562 0.15026379 0.019513706
-0.016803944 0.10817174 0.07216487 0.09517639 0.044547416 0.07431163 0.13242717 0.05233111
-0.0810881 0.055794034 -0.044016372 -0.029200504 0.017595598 0.056101587 0.12305066 -0.016520776
0.1359578 0.02274299 -0.044095945 0.1320906 -0.016064195 0.03176943 -0.042072024 0.008162185
0.02839958 -0.14591189 0.074046895 -0.14137104 0.112220526 -0.09073641 0.054697 0.10378857
-0.11845079 -0.08915308 0.12202137 -0.12445606 -0.025120253 -0.107107624 -0.05855727 0.01708443
0.047786977 -0.059337497 -0.007086285 0.15173449 -0.013763493 -0.095730044 -0.052115157 0.10864538
-0.011757202 -0.10632298 -0.031632863 -0.038321786 0.12080745 -0.05458044 0.06873118 -0.034919836
0.031880572 0.08933529 0.09316749 -0.07012494 0.09916901 -0.027409036 -0.020020274 0.035149407
-0.017835168 0.14102963 0.04356388 0.12323066 -0.0025216558 0.11103894 -0.028140556 -0.12172818
0.0065016057 0.13185742 0.09407956 0.073923744 0.11364692 0.096138336 -0.09513958 -0.082072236
0.11915037 0.0628474 0.032452203 0.09415278 -0.08123728 0.15266134 0.15209487 0.12388283
-0.13357261 0.060780093 0.13139497 0.13218506 -0.1395745 -0.08671145 -0.033993572 0.063234314
-0.13574673 0.06492063 -0.09160253 -0.069447294 -0.045398436 0.14372978 0.115538985 -0.08651941
0.047636703 -0.119272284 0.009186655 0.013439189 -0.05378309 0.15146019 0.004903205 -0.08871262
0.0064094244 0.111225806 -0.073719814 0.11784247 0.022415074 -0.020868959 -0.10169519 0.11473154
-0.082534656 0.11357828 0.027342314 0.0806327 -0.15245192 -0.14976065 -0.003033736 -0.05295426
-0.13320366 0.05589262 0.046059657 0.12733735 -0.05774729 0.13817342 -0.010363477 -0.091794334
0.04409835 -0.1178309 -0.114207834 0.10736942 -0.07827866 0.13508844 -0.08791604 0.11837525
-0.020032573 -0.10536781 -0.016637376 -0.11078895 -0.031161608 -0.109198615 0.055683658 -0.09235118
-0.07860508 -0.0062559773 0.14018898 0.1462298 0.0042911144 0.04620493 -0.02996575 0.027693007
0.08826394 0.05832735 0.05460106 0.13353433 -0.044252254 -0.024846373 -0.09881616 0.1332171
0.1391235 -0.10423803 0.13582094 0.11864484 -0.12398556 -0.07827548 0.005820621 0.12846485
-0.14343101 -0.12894784 0.0007589678 0.109740004 -0.11311071 0.02891312 0.11701166 -0.033076357
-0.013655142 0.09465414 0.12760279 -0.02277971 0.0942616 -0.13588166 0.0355007 -0.09616816
0.04570188 0.13017653 -0.065397725 -0.11729713 0.008438509 -0.10470146 0.100778505 -0.044331405
0.0099770315 -0.07140986 -0.12193848 0.13638447 -0.033829905 -0.1036514 0.03221577 -0.018307317
0.07886385 -0.12802865 -0.0980281 -0.049070433 -0.06877031 -0.10983704 0.1276738 0.13877091
0.09240194 -0.13559923 0.076554604 -0.103754535 -0.09412266 0.00078334997 -0.013626325 0.050420944
-0.06357206 -0.11760112 -0.14555977 0.026719967 -0.08878573 0.04638334 0.072610736 -0.100702256
-0.108921595 0.048529755 0.030468851 0.06468139 -0.1276066 -0.12808943 0.012826039 -0.119576074

encoder_layer.self_attn.in_proj_bias f4 [192]
00000000: 0000 0000 0000 0000 0000 0000 0000 0000
00000010: 0000 0000 0000 0000 0000 0000 0000 0000
00000020: 0000 0000 0000 0000 0000 0000 0000 0000
00000030: 0000 0000 0000 0000 0000 0000 0000 0000
00000040: 0000 0000 0000 0000 0000 0000 0000 0000
00000050: 0000 0000 0000 0000 0000 0000 0000 0000
00000060: 0000 0000 0000 0000 0000 0000 0000 0000
00000070: 0000 0000 0000 0000 0000 0000 0000 0000
00000080: 0000 0000 0000 0000 0000 0000 0000 0000
00000090: 0000 0000 0000 0000 0000 0000 0000 0000
000000a0: 0000 0000 0000 0000 0000 0000 0000 0000
000000b0: 0000 0000 0000 0000 0000 0000 0000 0000
000000c0: 0000 0000 0000 0000 0000 0000 0000 0000
000000d0: 0000 0000 0000 0000 0000 0000 0000 0000
000000e0: 0000 0000 0000 0000 0000 0000 0000 0000
000000f0: 0000 0000 0000 0000 0000 0000 0000 0000
00000100: 0000 0000 0000 0000 0000 0000 0000 0000
00000110: 0000 0000 0000 0000 0000 0000 0000 0000
00000120: 0000 0000 0000 0000 0000 0000 0000 0000
00000130: 0000 0000 0000 0000 0000 0000 0000 0000
00000140: 0000 0000 0000 0000 0000 0000 0000 0000
00000150: 0000 0000 0000 0000 0000 0000 0000 0000
00000160: 0000 0000 0000 0000 0000 0000 0000 0000
00000170: 0000 0000 0000 0000 0000 0000 0000 0000
00000180: 0000 0000 0000 0000 0000 0000 0000 0000
00000190: 0000 0000 0000 0000 0000 0000 0000 0000
000001a0: 0000 0000 0000 0000 0000 0000 0000 0000
000001b0: 0000 0000 0000 0000 0000 0000 0000 0000
000001c0: 0000 0000 0000 0000 0000 0000 0000 0000
000001d0: 0000 0000 0000 0000 0000 0000 0000 0000
000001e0: 0000 0000 0000 0000 0000 0000 0000 0000
000001f0: 0000 0000 0000 0000 0000 0000 0000 0000
00000200: 0000 0000 0000 0000 0000 0000 0000 0000
00000210: 0000 0000 0000 0000 0000 0000 0000 0000
00000220: 0000 0000 0000 0000 0000 0000 0000 0000
00000230: 0000 0000 0000 0000 0000 0000 0000 0000
00000240: 0000 0000 0000 0000 0000 0000 0000 0000
00000250: 0000 0000 0000 0000 0000 0000 0000 0000
00000260: 0000 0000 0000 0000 0000 0000 0000 0000
00000270: 0000 0000 0000 0000 0000 0000 0000 0000
00000280: 0000 0000 0000 0000 0000 0000 0000 0000
00000290: 0000 0000 0000 0000 0000 0000 0000 0000
000002a0: 0000 0000 0000 0000 0000 0000 0000 0000
000002b0: 0000 0000 0000 0000 0000 0000 0000 0000
000002c0: 0000 0000 0000 0000 0000 0000 0000 0000
000002d0: 0000 0000 0000 0000 0000 0000 0000 0000
000002e0: 0000 0000 0000 0000 0000 0000 0000 0000
000002f0: 0000 0000 0000 0000 0000 0000 0000 0000
0.0 0.0 0.0 0.0 0.0 0.0 0.0 0.0
0.0 0.0 0.0 0.0 0.0 0.0 0.0 0.0
0.0 0.0 0.0 0.0 0.0 0.0 0.0 0.0
0.0 0.0 0.0 0.0 0.0 0.0 0.0 0.0
0.0 0.0 0.0 0.0 0.0 0.0 0.0 0.0
0.0 0.0 0.0 0.0 0.0 0.0 0.0 0.0
0.0 0.0 0.0 0.0 0.0 0.0 0.0 0.0
0.0 0.0 0.0 0.0 0.0 0.0 0.0 0.0
0.0 0.0 0.0 0.0 0.0 0.0 0.0 0.0
0.0 0.0 0.0 0.0 0.0 0.0 0.0 0.0
0.0 0.0 0.0 0.0 0.0 0.0 0.0 0.0
0.0 0.0 0.0 0.0 0.0 0.0 0.0 0.0
0.0 0.0 0.0 0.0 0.0 0.0 0.0 0.0
0.0 0.0 0.0 0.0 0.0 0.0 0.0 0.0
0.0 0.0 0.0 0.0 0.0 0.0 0.0 0.0
0.0 0.0 0.0 0.0 0.0 0.0 0.0 0.0
0.0 0.0 0.0 0.0 0.0 0.0 0.0 0.0
0.0 0.0 0.0 0.0 0.0 0.0 0.0 0.0
0.0 0.0 0.0 0.0 0.0 0.0 0.0 0.0
0.0 0.0 0.0 0.0 0.0 0.0 0.0 0.0
0.0 0.0 0.0 0.0 0.0 0.0 0.0 0.0
0.0 0.0 0.0 0.0 0.0 0.0 0.0 0.0
0.0 0.0 0.0 0.0 0.0 0.0 0.0 0.0
0.0 0.0 0.0 0.0 0.0 0.0 0.0 0.0

encoder_layer.self_attn.out_proj.weight f4 [64, 64]
00000000: 40bf 9c3d d016 343c c8f6 3c3d 1cf0 04bd
00000010: c437 a63d 2441 dd3d 784a cc3c 5c73 813d
00000020: ecb8 24bd b023 9b3c 78af 9ebd 5055 4ebc
00000030: 5036 9ebc c0c0 d43d 44cf 37bd 02cf e7bd
00000040: d03d 6e3c 74cb fb3d 3093 a23d 30a4 683c
00000050: 2c04 34bd 58d5 d13c d8e9 a1bc ca40 8f3d
00000060: b4d5 55bd a0c4 093c 08bd a03d ec3b f63d
00000070: bc0b 6e3d a676 abbd dacb 9abd 30bb 4cbd
00000080: 9e47 98bd 0a6d eebd 50b1 283d e4ce 33bd
00000090: 40c1 3c3c ecbf 4ebd ccb4 a13d c0f3 c1bd
000000a0: 287e c3bd cca2 e93d d474 37bd 8052 3bbb
000000b0: ccc6 c2bd 28b4 313d f61b d63d 3898 13bd
000000c0: 3840 863c 0e97 bf3d b452 e23d ec38 553d
000000d0: 7078 43bc 5889 1f3d ac25 1bbd 88bc e53d
000000e0: f0ec cfbd 1ca3 3bbd 80f4 d33d 0acf a3bd
000000f0: fa84 99bd 24c8 f83d c6c7 c1bd 46a5 95bd
00000100: 021c 9abd 00c9 c4bd ba15 ab3d d0c1 6e3d
00000110: e077 2cbc ee48 db3d e447 0f3d 1868 d63d
00000120: a480 e63d 706d 44bd 9028 adbc 589c 2ebd
00000130: f41d 183d 123f c4bd 14f0 e5bd 084b b83c
00000140: 28b2 83bc 9aad c5bd 6239 87bd b8e1 20bd
00000150: 9094 233c 00a2 b43a 6428 dd3d a450 aabd
00000160: 8470 e2bd 3c01 ba3d a4f3 02bd 6031 c23b
00000170: 90d6 4d3d c0e8 3f3d 1e8b cebd e495 553d
00000180: a277 8b3d 007b bd3c e06f b03c a8ac 933c
00000190: 40a1 97bb 346a 8e3d 20a9 103c e49f 4bbd
000001a0: d637 ee3d 208c 133c eae7 b9bd 52a9 f03d
000001b0: a4f0 06bd 0261 8fbd 823a dbbd 9625 853d
000001c0: 5c3a df3d 84ee 563d 8c6d 103d 5869 c6bd
000001d0: de29 e1bd 3033 e73c 48d9 17bd 109d 123c
000001e0: 227e eabd 0ca9 4fbd 409a aebc f8ef 74bd
000001f0: 92cc a43d 40c8 a6bc 1077 723c 74a5 d23d
00000200: 74c3 73bd 6286 843d 0cb2 a83d d411 d8bd
00000210: 5838 f23d 80e8 48bd 2ecb 8c3d 0459 9cbd
00000220: 6cd3 3dbd 805e dfbd e45f 9bbd 2a3f f03d
00000230: ae92 be3d 6000 ba3c be8e d3bd 1801 d6bd
00000240: be41 c8bd 30fa bb3c 00f1 b0bc 80b6 93bd
00000250: e2bb a43d 001a a439 340d 14bd e244 d6bd
00000260: ac83 25bd 701d 6cbd 882c b6bd f8c0 b6bd
00000270: d42e ea3d 50a6 1d3d e6ae f83d 5892 ca3c
00000280: 5079 273c 86d6 e43d a0cd 84bc 24ab 1b3d
00000290: c025 aebb 70d4 90bc 807c 733c b0be 353c
000002a0: 5a53 efbd 20e1 ba3b cc06 c13d 94fa 0e3d
000002b0: fce9 cd3d 7437 05bd c0e6 ba3c 2851 e93d
000002c0: cebb 9ebd 9e6f a4bd fe6e dfbd c8a2 71bd
000002d0: ecc7 7bbd 74bc 51bd 300f 933c f0ee 613d
000002e0: 68a9 9ebc c079 453d a01e 9f3c c81c 12bd
000002f0: 2487 0c3d 90df 363d 9814 9d3c f465 e9bd
00000300: a27a ef3d d67d 9d3d 701f 943d cc78 60bd
00000310: d0bd e2bc 94d7 3ebd 1024 15bc c0d7 7ebc
00000320: a88e 223d 543d d53d e2f2 9cbd 4082 b2bb
00000330: d0f2 fe3d 0e5c f03d 94bf de3d 2856 ab3d
00000340: d0b0 fb3c 827c eebd 70dd 373d c06b ea3c
00000350: a85b d6bd 4434 8fbd a027 2f3d 2a7d fbbd
00000360: c0e4 f2bb dcd9 d93d 8a62 a23d 68a5 76bd
00000370: dc8e 40bd 98d5 ebbd 00b9 3abc 10cc 31bd
00000380: 14a9 49bd 62bf ba3d 4eb7 cfbd 0079 63bc
00000390: 7815 dbbd 9852 3abd 8020 ffbc 22f3 d9bd
000003a0: 303f 9c3d e879 813d 10dd d73c b823 5fbd
000003b0: 8ced 6e3d f026 c63d 68c2 c33c 9a4e edbd
000003c0: 1801 b93d e8c2 8a3c bef4 d4bd a085 8dbb
000003d0: 80d6 ff3d 00cd 023b e0c8 533d 9c98 bd3d
000003e0: 10e5 553c 2081 e43b e822 90bc c47b 6a3d
000003f0: 0c2e 93bd 00ed c53b 30f6 bb3d c809 3b3d
0.076536655 0.010991767 0.046133786 -0.03245555 0.08116105 0.1080344 0.024937853 0.06320831
-0.040215418 0.018937916 -0.07748312 -0.012593582 -0.019313008 0.10388327 -0.0448754 -0.113187805
0.014541104 0.12294665 0.0793823 0.014199302 -0.04394929 0.025614426 -0.019764826 0.069947794
-0.052205756 0.008408695 0.07848555 0.12023148 0.05811666 -0.0837224 -0.07558413 -0.049983203
-0.07435535 -0.11641891 0.041184723 -0.04389848 0.011520684 -0.050476 0.078958124 -0.0947032
-0.09545547 0.11408004 -0.04478915 -0.002858311 -0.09510574 0.0433847 0.10454552 -0.03603384
0.016388044 0.09354983 0.110509306 0.052056238 -0.01193057 0.03894934 -0.037877724 0.112176
-0.10152614 -0.04580985 0.10349369 -0.07998474 -0.074960664 0.12147549 -0.09461932 -0.07306914
-0.07524873 -0.0960865 0.083537534 0.058290303 -0.010526627 0.107072696 0.03498067 0.10469073
0.11255005 -0.04795593 -0.021137506 -0.04262957 0.03713794 -0.09582342 -0.11227432 0.022496715
-0.016076162 -0.096522525 -0.06602742 -0.039277762 0.0099841505 0.001378119 0.107987195 -0.08316162
-0.11056617 0.09082267 -0.031970635 0.005926296 0.05025345 0.046852827 -0.10085128 0.0521449
0.068099275 0.02312994 0.021537721 0.018026665 -0.004627377 0.069538504 0.008829385 -0.04971303
0.116317436 0.009005576 -0.09077437 0.11751045 -0.032944337 -0.07000925 -0.10704519 0.065013096
0.10899803 0.05247356 0.035260722 -0.096880615 -0.10994314 0.02822265 -0.03707245 0.008948579
-0.11449839 -0.050698325 -0.021313787 -0.059799165 0.08046831 -0.020359159 0.0147988945 0.10285464
-0.05951257 0.06470944 0.08237085 -0.105502754 0.11827153 -0.049049854 0.06874691 -0.07634166
-0.046344206 -0.10906696 -0.07586649 0.117307976 0.09305321 0.022705257 -0.1032996 -0.10449427
-0.09778164 0.022946447 -0.021599293 -0.072125435 0.08043648 0.0003129989 -0.036145404 -0.10462357
-0.040408775 -0.05764526 -0.088952124 -0.089235246 0.11434713 0.038488686 0.12142734 0.024727985
0.010221794 0.111737296 -0.01621133 0.03800501 -0.0053145587 -0.017679423 0.014861226 0.011092827
-0.1168582 0.0057031065 0.094251245 0.03490694 0.100543946 -0.032523587 0.022815108 0.113924325
-0.07750665 -0.08029102 -0.10909842 -0.05899313 -0.061469957 -0.051205114 0.017951578 0.05515951
-0.019367889 0.048211813 0.019423783 -0.03567198 0.034308568 0.0446468 0.019174859 -0.11396399
0.11693312 0.07690017 0.07232559 -0.0548027 -0.0276784 -0.04659231 -0.009102836 -0.0155543685
0.03968683 0.10412088 -0.07663514 -0.005447656 0.124486566 0.11736308 0.108763844 0.083660424
0.03072396 -0.11644842 0.044888914 0.028615832 -0.10466701 -0.06992391 0.0427624 -0.122797325
-0.007412523 0.106372565 0.07928951 -0.060216337 -0.04701124 -0.11515349 -0.0113966465 -0.0434075
-0.04923351 0.091185346 -0.101423845 -0.013883829 -0.10697454 -0.045488924 -0.031143427 -0.10642077
0.076292396 0.0632208 0.026350528 -0.054477423 0.05833201 0.096753955 0.023896411 -0.11587258
0.09033412 0.016938642 -0.10398243 -0.004318908 0.124920845 0.0019958615 0.05170524 0.092576236
0.013055101 0.0069734007 -0.01759477 0.05724694 -0.07186517 0.0060402155 0.09177816 0.045663625

encoder_layer.self_attn.out_proj.bias f4 [64]
00000000: 0000 0000 0000 0000 0000 0000 0000 0000
00000010: 0000 0000 0000 0000 0000 0000 0000 0000
00000020: 0000 0000 0000 0000 0000 0000 0000 0000
00000030: 0000 0000 0000 0000 0000 0000 0000 0000
00000040: 0000 0000 0000 0000 0000 0000 0000 0000
00000050: 0000 0000 0000 0000 0000 0000 0000 0000
00000060: 0000 0000 0000 0000 0000 0000 0000 0000
00000070: 0000 0000 0000 0000 0000 0000 0000 0000
00000080: 0000 0000 0000 0000 0000 0000 0000 0000
00000090: 0000 0000 0000 0000 0000 0000 0000 0000
000000a0: 0000 0000 0000 0000 0000 0000 0000 0000
000000b0: 0000 0000 0000 0000 0000 0000 0000 0000
000000c0: 0000 0000 0000 0000 0000 0000 0000 0000
000000d0: 0000 0000 0000 0000 0000 0000 0000 0000
000000e0: 0000 0000 0000 0000 0000 0000 0000 0000
000000f0: 0000 0000 0000 0000 0000 0000 0000 0000
0.0 0.0 0.0 0.0 0.0 0.0 0.0 0.0
0.0 0.0 0.0 0.0 0.0 0.0 0.0 0.0
0.0 0.0 0.0 0.0 0.0 0.0 0.0 0.0
0.0 0.0 0.0 0.0 0.0 0.0 0.0 0.0
0.0 0.0 0.0 0.0 0.0 0.0 0.0 0.0
0.0 0.0 0.0 0.0 0.0 0.0 0.0 0.0
0.0 0.0 0.0 0.0 0.0 0.0 0.0 0.0
0.0 0.0 0.0 0.0 0.0 0.0 0.0 0.0

encoder_layer.linear1.weight f4 [128, 64]
00000000: 0620 aabd 2288 cf3d 86b8 c93d 60b9 d2bd
00000010: cc54 b83d 8cbe a9bd 6689 b23d 18c4 b1bd
00000020: 18d0 c3bc e88f 553d 586f 7dbd 3087 c03d
00000030: f04d 1e3c 689a 913d 58b4 9a3d e2a5 b2bd
00000040: 4009 d8bd 0080 5537 d04c 9abc e871 c93d
00000050: a6b4 dd3d 24fe 54bd 3a82 edbd eaeb b8bd
00000060: 3a2e a5bd a0a5 f53c 6248 923d 9a87 a1bd
00000070: b0da 523d a033 023d 00e2 1a3b e4cc 8bbd
00000080: a038 a03d b048 8fbd ec05 7c3d 5270 afbd
00000090: 520f e2bd 3a20 b8bd ca55 e6bd b0a3 79bd
000000a0: 70db a5bd ac10 07bd 2a6b 8abd 3e9c 9cbd
000000b0: 3e29 c7bd d0f1 ab3d 3674 923d 469b c03d
000000c0: aac3 8dbd 20ba 2bbd 0a5a d93d 7009 e6bc
000000d0: 704f 31bd 00b7 6f3c f267 c9bd 0c7c d13d
000000e0: 38d0 8c3c 327e 8fbd 8a94 a0bd 2ebb d5bd
000000f0: dc64 ae3d b0ce ab3c 02d0 dcbd 3c88 273d
00000100: 9848 ecbd a0a7 ca3b c0a7 92bd 406e 6dbd
00000110: 6c1f d33d 8ea9 c43d a45e e33d 84b6 fc3d
00000120: 80e3 5cbc 00e9 2bbb 2cf0 2c3d 5003 643c
00000130: 5cbb 793d a072 18bd 0813 fd3c 5262 853d
00000140: fa76 e43d 8075 dd3d 4832 a7bc 70ea 40bd
00000150: b062 a4bd e8cd 91bd 104b c53c 4635 99bd
00000160: 0aed a13d 00fb ac3c 847e 70bd c01e b63d
00000170: e897 583d 385b 40bd 3003 753c b050 bf3d
00000180: e23e dbbd c6c3 d63d 7e1f cbbd d638 dcbd
00000190: b822 0fbd 82cb bd3d 000b 91ba 00be f5bc
000001a0: 8aa7 aebd e887 a53d 3a9b cdbd b084 733c
000001b0: d640 b4bd 5e52 d43d f467 78bd 2c38 95bd
000001c0: 3027 73bd 7885 babd 80e7 5a3b b427 f9bd
000001d0: c005 b63b d6f4 c1bd 3821 83bd fe38 bf3d
000001e0: 940f f8bd 70f2 703c ec76 593d 48f3 093d
000001f0: 708e 0a3d 00e8 beba a6b5 8bbd 469f cabd
00000200: 006c 0bba d8f9 a1bc f44d c13d 6c90 b83d
00000210: 1c1e a0bd b03a 453c 0c30 74bd e040 bc3d
00000220: e8a5 ddbd f43f 2ebd 0032 cdb9 8084 d7bd
00000230: f20b f03d 803a 893b c072 f0bb 024e dcbd
00000240: 6661 e93d d20b acbd f8f9 a3bc 2498 233d
00000250: 42d9 af3d 4aca cd3d d888 7fbd 14a7 4a3d
00000260: d601 ffbd dc59 913d 6881 eabc 482d 933d
00000270: 8830 153d 4824 efbc a8f6 1f3d 0c38 2b3d
00000280: f6a3 aebd dc11 d7bd 708c 0dbd 0861 7a3d
00000290: 4404 c73d 9e3f de3d 32b9 fabd d44f cc3d
000002a0: 605e 4a3c 60b9 65bc 00ab 783a b8f1 c8bd
000002b0: 002c f43c 00dd 78bb c6fa 95bd d04f 12bc
000002c0: 78eb d3bc 9ce2 0f3d 600a da3c fe7a c0bd
000002d0: dcd8 0c3d 1657 eebd d03e b3bc 00a8 5ebd
000002e0: 84e3 f9bd 8297 bc3d 0425 bdbd 00ff f3bd
000002f0: b074 843c 28f7 68bd b0cb 363c a4c6 98bd
00000300: 200c 693c fce7 71bd 2a21 a73d 8a11 dd3d
00000310: 10f3 e23c 447e bd3d e008 efbb 307c 9abc
00000320: e0eb 90bb 40f4 9dbc 6c40 c7bd 9063 553c
00000330: 6838 d2bc 6c95 f7bd 1028 aabd 7407 90bd
00000340: ca46 db3d 6015 f83b a02b efbb f4fa a63d
00000350: 04e4 6c3d e679 fc3d fcb2 95bd 7aa6 f03d
00000360: f662 ba3d 06ae 90bd 6035 eb3d 44f8 d1bd
00000370: e46d ad3d 745e 923d 8024 563b 9406 003d
00000380: d4b7 e3bd 26f0 d53d 80f5 bcba 00a0 ec3d
00000390: 9e16 e3bd 2a7d 943d 4038 503b d422 653d
000003a0: 7c86 a43d b826 4dbd 4837 a4bc 703c 963c
000003b0: d0f9 5d3d 1895 a6bc 4481 a63d 3c39 6bbd
000003c0: 8c93 e53d 688a cd3d c8ed 273d 184c ecbd
000003d0: d690 943d 346b 2ebd 66ba e43d 9021 cc3d
000003e0: 9e7e cc3d 5066 7a3c 6082 523c ccde 41bd
000003f0: aceb d1bd 5eb6 9cbd 504e da3d eed9 91bd
-0.08306889 0.10133387 0.09849648 -0.10289264 0.09000549 -0.08288297 0.08717613 -0.0867998
-0.023902938 0.052139193 -0.061873764 0.09400785 0.009662136 0.07109529 0.07553929 -0.08723046
-0.10548639 1.2725592e-05 -0.018835455 0.09836179 0.108254716 -0.05200018 -0.11597104 -0.09029372
-0.08065458 0.029986203 0.07142712 -0.07887192 0.051478088 0.031787515 0.0023633242 -0.06826189
0.078233 -0.06996286 0.061529085 -0.08566345 -0.11038078 -0.08990522 -0.11246832 -0.06094712
-0.08098495 -0.032974884 -0.06758721 -0.07646988 -0.09724663 0.083957314 0.07151072 0.09404616
-0.069220856 -0.04192555 0.10612877 -0.028080672 -0.043288648 0.014631033 -0.09834279 0.10228738
0.01718913 -0.07006492 -0.078408316 -0.10436092 0.08515331 0.02097258 -0.10781862 0.040901408
-0.11537284 0.0061845332 -0.07160902 -0.05796647 0.103087276 0.096026525 0.11102036 0.123394996
-0.013481975 -0.0026231408 0.042221233 0.013916805 0.060969695 -0.03721869 0.030892864 0.06512894
0.111555055 0.10813427 -0.020409718 -0.047098577 -0.08026636 -0.071193516 0.024083644 -0.07480864
0.0790654 0.02111578 -0.058714405 0.08892584 0.052879244 -0.046961993 0.014954373 0.09341562
-0.10705353 0.104865596 -0.09918116 -0.10753028 -0.03494522 0.09267332 -0.00110659 -0.029997826
-0.08528049 0.08082563 -0.10039373 0.014863178 -0.08801429 0.10367273 -0.060646012 -0.072861046
-0.059363544 -0.091074884 0.0033402145 -0.12165776 0.0055548847 -0.09470527 -0.0640282 0.09337042
-0.12112346 0.014706239 0.05309193 0.033679277 0.033827245 -0.0014564991 -0.06821756 -0.0989366
-0.00053185225 -0.019772455 0.094386965 0.09011921 -0.07818243 0.012037918 -0.059616134 0.091920614
-0.1082266 -0.04254146 -0.000391379 -0.10523319 0.117210284 0.004187882 -0.007337898 -0.10757066
0.113955304 -0.08400692 -0.020016655 0.039940014 0.085863605 0.10048349 -0.062386364 0.049475744
-0.12451522 0.070972174 -0.028626159 0.07186371 0.036423236 -0.029192105 0.03905359 0.041801497
-0.08527367 -0.10501453 -0.03455776 0.061127692 0.097176105 0.10851978 -0.122423545 0.099761635
0.012351602 -0.014021248 0.000948593 -0.09811729 0.029806137 -0.0037973523 -0.07323222 -0.008930162
-0.025869116 0.03512822 0.026616275 -0.09398459 0.0343865 -0.11637704 -0.021880537 -0.054359436
-0.12201598 0.09208585 -0.09235576 -0.11913872 0.016168922 -0.05687633 0.011156961 -0.07459763
0.014224082 -0.05905913 0.081606224 0.10794361 0.027703792 0.09252599 -0.007294759 -0.018858045
-0.0044226497 -0.019281507 -0.09729084 0.013024226 -0.025661662 -0.12089047 -0.083084226 -0.070326716
0.10706861 0.0075709075 -0.0072989017 0.08153334 0.05783464 0.12327938 -0.07309529 0.11750503
0.091009066 -0.07064442 0.1148479 -0.10252431 0.084682256 0.07146922 0.0032675564 0.031256273
-0.11119047 0.10446195 -0.0014416426 0.11553955 -0.11088298 0.07250436 0.003177181 0.055941418
0.08033463 -0.050085753 -0.020045891 0.018339366 0.054193318 -0.020334765 0.08130124 -0.05742763
0.11209783 0.100361645 0.04099825 -0.11537951 0.07254188 -0.042582706 0.11168365 0.09967339
0.09985088 0.015283182 0.012848467 -0.047331616 -0.10250029 -0.07651971 0.10659468 -0.07121645

encoder_layer.linear1.bias f4 [128]
00000000: 2060 a73c e0d5 f93b 40d6 37bc a0cd 24bd
00000010: d82c d33d f84f e2bc 744c ec3d 0cc0 a93d
00000020: 304f cbbd aacd 813d 089f 333d e029 66bd
00000030: e690 cdbd 0252 a93d 78c9 a1bd fedc b0bd
00000040: 5033 6ebc 389c ccbd 60bb dc3d 84cc 963d
00000050: 0e06 8cbd 6ac0 cfbd a877 f3bd 1adf 87bd
00000060: 5c76 c03d 445d 50bd ec3a cc3d 16b2 b13d
00000070: 00dc a3bd f881 43bd fc11 88bd bc7c d0bd
00000080: 3011 3f3c 549e 80bd 0cfc ae3d d0f8 423c
00000090: 0868 a9bd cc5a a03d 1a69 8cbd 9840 b0bd
000000a0: 7403 423d 9859 e4bd 2883 193d 2040 e9bb
000000b0: 5ac0 f3bd 168b 84bd a443 c1bd 70af 703c
000000c0: f0f3 d1bc 3859 8b3d b04a f03c a4f8 9a3d
000000d0: c2a5 e13d 5854 a93c b034 ec3d 1a0b a4bd
000000e0: 488a b63c 3a59 943d e8a5 5e3d d858 9f3c
000000f0: 9072 cc3d b632 fc3d aaeb ad3d 5809 603d
00000100: e0f9 82bd a837 493d 5c22 013d 7026 84bd
00000110: 1005 a53c 48e3 27bd aeee 8bbd 284e af3d
00000120: d40e d3bd 50fb d23d f853 f73d 4858 93bd
00000130: 802d 833c 80b9 813c 78ad ed3d 14a1 3d3d
00000140: 9a95 a6bd 1e56 dbbd b812 e23d 808d ce3a
00000150: eaa9 d9bd 2884 a0bd 4cdf 64bd 4cee 693d
00000160: 906f d53d 2c89 c63d c893 67bd 0037 f3ba
00000170: aed4 8a3d 2095 8d3b fc0c 773d 3cf8 48bd
00000180: 5472 f43d 1460 24bd c0a1 443b 84f6 a1bd
00000190: 780a 223d aafc f03d 2666 fcbd a063 3a3c
000001a0: 30be 09bc 8abd f23d c08d 773d d463 2d3d
000001b0: 5439 27bd 985d 7b3d d007 7dbd 7c1b 4abd
000001c0: ac9f d23d eaa0 ba3d 7ab0 923d d04e 273c
000001d0: d06f ddbc 60d9 8b3b 0a6f a4bd 7ca7 5e3d
000001e0: 5aa0 9c3d 2895 aabc 2cf9 00bd 3080 0a3d
000001f0: 0a09 833d b870 763d caed d7bd 38dd 8d3d
0.020431578 0.007624373 -0.011220515 -0.04023516 0.10311288 -0.027626023 0.1153802 0.08288583
-0.09927213 0.063380554 0.043852836 -0.05619228 -0.10037403 0.08267595 -0.07899755 -0.08635901
-0.014538601 -0.09990734 0.107779264 0.07363227 -0.06837092 -0.10144122 -0.11888057 -0.0663435
0.09397575 -0.050870195 0.09972176 0.08676545 -0.08000946 -0.04773137 -0.06644055 -0.10180041
0.011661813 -0.06280199 0.08544168 0.011900142 -0.082717955 0.07829818 -0.06855984 -0.0860607
0.047366574 -0.11149901 0.037478596 -0.00711824 -0.119019225 -0.06471841 -0.094367296 0.014690265
-0.025629014 0.068041265 0.029332489 0.07566956 0.11017944 0.020670101 0.11533487 -0.0800993
0.022282735 0.07243581 0.05435744 0.019451544 0.099827886 0.1231436 0.08492215 0.05469641
-0.06395316 0.049125344 0.03152691 -0.06452644 0.020144016 -0.040988237 -0.06832634 0.08559829
-0.103055626 0.1030184 0.12076563 -0.07194573 0.016012907 0.015835524 0.11605352 0.046296194
-0.08134003 -0.10709785 0.110387266 0.0015758723 -0.10628112 -0.07837707 -0.055877015 0.057112023
0.104216695 0.09694132 -0.05653742 -0.001855582 0.06778847 0.0043207556 0.060315117 -0.04906486
0.11935869 -0.04013069 0.0030003637 -0.07908347 0.039560765 0.11766942 -0.12324171 0.0113762915
-0.008407161 0.11852558 0.060437918 0.04233153 -0.040826157 0.061368555 -0.06177503 -0.049342617
0.10284361 0.09112723 0.071625665 0.010211661 -0.027030855 0.0042678565 -0.080289915 0.054358944
0.07647772 -0.020823076 -0.03148763 0.033813655 0.063982084 0.06016609 -0.105434015 0.0692696

encoder_layer.linear2.weight f4 [64, 128]
00000000: a73f a43d 35df ebbb 36df 57bd 2cc5 463b
00000010: 7045 44bd 2be7 76bc d903 7ebd f47e 9e3d
00000020: f18e f53c c0cb 58bb eca7 a13d 9960 023d
00000030: a8d1 df3c 67e3 97bc 131a 5bbd f690 9bbc
00000040: f3f8 58bd 3d05 653d f685 6cbd 788c 2dbd
00000050: 15fb 433d 2bce a93d fd98 5f3d 5b18 4bbd
00000060: c492 253c 98ad aebd 8510 2c3d e16f 2abd
00000070: b6eb a8bc 5f73 6b3c 3aed 0c3d 6ac3 8dbd
00000080: 92aa 6fbd 9919 ff3c 5a94 b13d 99e5 abbd
00000090: 7699 cf3c a414 e7bc 2bbc 15bc 3911 2dbd
000000a0: 7aed 8b3c 0cae cc3c b762 183d 50f7 a6bd
000000b0: 0ed7 103d 6c1a b33d 5d87 31bd c687 48bc
000000c0: d658 0e3c c98b 26bd d8a4 203d 7dbe b43d
000000d0: 6fe7 0fbd f7bf 2bbd a8ee 4f3d 2e54 15bc
000000e0: 94a3 983d 4908 b03d 219d 93bd 5253 193c
000000f0: 5ea2 98bd 8c54 08bd 043e 35bd f5b5 57bd
00000100: 2eb8 f8bc 1767 bc3c 578c 933d 3259 9fbd
00000110: a3a6 6fbd f4ca ab3d 94f0 623d 4933 a03c
00000120: ef59 853d 750a efbc 0e14 9bbd cba9 863d
00000130: d685 0c3c d48c 8abd 7e09 a23c 0a28 2d3d
00000140: 9382 2cbc df7e e5bc b253 913d a5d4 713d
00000150: a7ae 4fbd 755f 94bd 84de c63c 10e7 a13d
00000160: eff2 8c3d 062a 5a3d 050a 8fbd 9629 ae3d
00000170: 46b5 8bbd 689b 6cbd 894f d1bc 62cd 2a3d
00000180: 63b8 5b3d f943 67bc 67b0 953d 11bb 56bd
00000190: 7587 50bd 9ea9 72bd 0d44 a7bd d8ca afbd
000001a0: 313b 8c3d 3e17 cb3c 3bde 463d bbd4 3dbd
000001b0: c120 233c 5ca3 293c 8c84 2fbd b32d 65bd
000001c0: 761f 643d fe54 a4bd 850d 573d 5a0e c83c
000001d0: 8fb0 93bb d6d7 5cbb 544d 59bb 98be 77bd
000001e0: 2788 113d dd71 31bd 604f 9b3b cd68 943d
000001f0: 1c9e 1f3d 7aa7 973c 5f0a a33d 677b 783d
00000200: ad00 3bbd 1c6e 2f3d ddd1 fb3b d885 76bd
00000210: 2b6d 05bd 178d 4e3c f79c b3bd dbd6 9fbc
00000220: 3bc3 c53c 2639 233c 7414 e1bb a807 90bd
00000230: 56f8 ea3c 8337 19bd 6660 a93d c3e4 973d
00000240: a731 5d3d acb3 94bd bc14 b03d 08b6 90bc
00000250: 30ad d43b 0b7c 483d 796e 6ebc a4bb 823d
00000260: 0376 e13c 2f9d a2bd 225e 37bd ba34 45bc
00000270: 0e8e 8dbd 1937 31bd ff10 95bd 5902 773d
00000280: 847d b2bd 585a 8fbd aa82 8a3d 3173 78bd
00000290: baf9 623d a96d 9ebd c127 653d ae07 f6bb
000002a0: ff3c 943d 5e82 a1bc 22b8 663d ee25 653b
000002b0: b6a2 85bc 916c 9e3d 1493 50bd 9271 3b3d
000002c0: dd72 aabd d527 583c 039c 973d b8bd a1bc
000002d0: d9df 73bd fa6a b43b 90a7 8c3d aa89 f4bc
000002e0: 94ee 83bd e92b 823c 9784 8f3d efec 94bd
000002f0: 8c68 60bd 29ec c83c 77a6 9abb 05ae 27bd
00000300: 59d9 54bd 64d9 6cbc b8cb bc3b ddbb 123d
00000310: b3c5 91bd 0408 14bd 7353 913d 342b 2c3c
00000320: ac9b 51bd 9afd 473d 191d 27bd 5a42 4bbd
00000330: ad5e 7a3c 0e7c 743d 3e90 3fbd dd4f 6d3d
00000340: 7433 a7bd 3fe1 3bbd 2c6d aebb d8f5 aa3b
00000350: 1cf2 a83d f79b 673b e76c 813c 73a2 ac3d
00000360: e8df 77bd 774d aebd 671c 7bbd 8573 92bd
00000370: 5a7b a1bd 00a6 213d 31a3 e23c 0252 60bd
00000380: fd73 4eba 6104 08bd dd39 fa3b e32f 41bc
00000390: 9e04 b43d fb1f 14bd 5650 7c3d 9497 3f3c
000003a0: d5a8 313d 0a7b 973d 2d5f f3b9 c3a1 9e3c
000003b0: d38c 933c 7a8c 8dbd ab08 b8bb 475f a3bd
000003c0: dc98 873d 481a 3cbc 736b 983d 07db 5fbc
000003d0: 53b7 3a3d e029 243d 14bd 04bb cdd5 953c
000003e0: 07d2 0ebd 04c1 b3bd 352f 57bd e387 20bd
000003f0: c48b 953d 7ba4 24bd 2f85 f7bc 3600 abbd
0.08019953 -0.007198239 -0.052703105 0.0030329926 -0.047917783 -0.015069763 -0.06201539 0.07739058
0.029975386 -0.003308043 0.07893357 0.031830404 0.027321652 -0.018541051 -0.053491663 -0.018990021
-0.05297179 0.0559132 -0.057744943 -0.04237029 0.047846872 0.082912765 0.05458926 -0.049583774
0.010105792 -0.08529204 0.04200794 -0.041610602 -0.020620208 0.014370768 0.034405924 -0.06922038
-0.058512278 0.031140136 0.08670874 -0.08393402 0.02534173 -0.028208084 -0.009139101 -0.042252753
0.017081011 0.024985336 0.037203517 -0.0815264 0.035361342 0.08745274 -0.043341983 -0.012239402
0.008688172 -0.040660653 0.039219707 0.08825395 -0.03513282 -0.04193112 0.05076471 -0.009114308
0.07453075 0.0859533 -0.07207704 0.009358244 -0.07452844 -0.033283755 -0.044248596 -0.052663762
-0.030361261 0.022998376 0.07204502 -0.077806845 -0.058508527 0.083883196 0.055405214 0.019555705
0.06511294 -0.029179791 -0.075721845 0.06575354 0.008576831 -0.06765142 0.019779917 0.042274512
-0.010529178 -0.028014598 0.07096042 0.059040684 -0.05070367 -0.072447695 0.024276026 0.079054
0.068822734 0.053262733 -0.06984333 0.08504026 -0.068216845 -0.057765394 -0.02555062 0.041699775
0.05364264 -0.014115327 0.07309037 -0.052424494 -0.050910432 -0.05924379 -0.081672765 -0.08583611
0.06847227 0.024791356 0.04855178 -0.046345454 0.00995654 0.010353889 -0.042851016 -0.055951785
0.055694066 -0.080240235 0.052503128 0.024420906 -0.0045071314 -0.0033697984 -0.0033157663 -0.0604845
0.035530236 -0.04332148 0.004739687 0.07246552 0.038969144 0.018512476 0.079609625 0.06066456
-0.04565494 0.042829618 0.0076849298 -0.060186237 -0.032574814 0.012606881 -0.08770173 -0.01951163
0.024140945 0.009962356 -0.0068688933 -0.0703271 0.028682869 -0.037406456 0.0827034 0.0741668
0.05400243 -0.07260832 0.08597705 -0.017664924 0.006490372 0.04894642 -0.014552706 0.06383446
0.027522093 -0.07940137 -0.044767506 -0.012036497 -0.069118604 -0.043265436 -0.072786324 0.060304973
-0.087153465 -0.069996536 0.067632034 -0.06065673 0.05541394 -0.0773576 0.055946115 -0.0075082397
0.072381966 -0.019715484 0.056327946 0.0034965235 -0.016312938 0.07735551 -0.050921515 0.045762606
-0.0832269 0.01319309 0.07402804 -0.019743785 -0.05953965 0.0055059167 0.068678975 -0.0298508
-0.064419895 0.015890079 0.070077114 -0.07271754 -0.054787204 0.024526672 -0.004719551 -0.040937442
-0.05196509 -0.014456127 0.00576159 0.03582369 -0.07117786 -0.036140457 0.07095995 0.010508347
-0.05117385 0.048825838 -0.040799234 -0.049623825 0.0152813615 0.05968862 -0.04676842 0.05793749
-0.08164111 -0.04586911 -0.005323073 0.005217295 0.08249304 0.0035340765 0.015798999 0.08429422
-0.060516268 -0.08510869 -0.061306383 -0.0715094 -0.078848556 0.03946495 0.027665706 -0.05476571
-0.000787556 -0.0332073 0.0076362924 -0.011791202 0.08789943 -0.03616331 0.06160005 0.011693854
0.0433739 0.07396515 -0.00046419483 0.019364243 0.018011486 -0.069115594 -0.0056162677 -0.07977157
0.066209525 -0.011480875 0.07442369 -0.01366306 0.045584988 0.040078998 -0.00202543 0.018290425
-0.034868266 -0.08777049 -0.052535255 -0.03919209 0.07302049 -0.040195923 -0.030214874 -0.083496496

encoder_layer.linear2.bias f4 [64]
00000000: 04cc 0a3d 488e 46bc 75b1 a13d 0fa2 203d
00000010: ebee 8c3d 701a 723b 60d7 513d 2e98 513d
00000020: 7932 56bd 2d11 a93d d36f 04bb 1f29 9abd
00000030: ba8e 02bc c1ff 983d aef5 903d 62e2 663d
00000040: 1b63 b53c 1d99 a6bd 2355 97bd 5555 69bd
00000050: 5e67 253c 5ab1 00bd 9ee8 413c 7b11 a7bd
00000060: 6a0e 253d f0cd 9a3d afcc ec3c 384a 94bc
00000070: 367b 053d 15fa eebb 6896 823d 8f19 fabc
00000080: 9240 13bc 4bba 803c 56ae 4c3c 4209 f43c
00000090: 4eaa 413d 0dda f938 a96b bdbc 9d22 d5bc
000000a0: 6f6a 8cbc 86ad a9bc 5d2a 283d 31e8 8a3d
000000b0: 592d 253d 0391 8abd e95e 9b3c b303 80bd
000000c0: a30a 1ebd 7929 53bc aa11 afbd 015a a93d
000000d0: e1a9 253c 669f 95bd b060 2cbd 888d 35bd
000000e0: 06d8 a4bd 10a5 e8bc f2cc 95bd a314 b2bd
000000f0: cd24 013d ac52 7b3c 85cf 383d bc8c 9a3d
0.03388597 -0.012118883 0.07895175 0.03921705 0.068815075 0.0036942028 0.05123079 0.05117052
-0.05229423 0.08255229 -0.0020208254 -0.075273745 -0.007968599 0.07470656 0.0707811 0.05636824
0.022141984 -0.08134673 -0.073892854 -0.056966145 0.010095445 -0.031419136 0.011835245 -0.08157631
0.04029695 0.07558811 0.028906194 -0.018101797 0.032588206 -0.0072929957 0.06376344 -0.030529765
-0.008987563 0.015713831 0.012492737 0.02978957 0.047281556 0.0001191386 -0.023122625 -0.026017481
-0.017140595 -0.020712625 0.041056026 0.06782568 0.04032645 -0.0676594 0.018966155 -0.062507056
-0.038584363 -0.012888306 -0.08548291 0.0826912 0.010111303 -0.073057935 -0.042084396 -0.044324428
-0.08049016 -0.02839902 -0.07314481 -0.086953424 0.031529237 0.015339535 0.04511978 0.07546374

encoder_layer.norm1.weight f4 [64]
00000000: 0000 803f 0000 803f 0000 803f 0000 803f
00000010: 0000 803f 0000 803f 0000 803f 0000 803f
00000020: 0000 803f 0000 803f 0000 803f 0000 803f
00000030: 0000 803f 0000 803f 0000 803f 0000 803f
00000040: 0000 803f 0000 803f 0000 803f 0000 803f
00000050: 0000 803f 0000 803f 0000 803f 0000 803f
00000060: 0000 803f 0000 803f 0000 803f 0000 803f
00000070: 0000 803f 0000 803f 0000 803f 0000 803f
00000080: 0000 803f 0000 803f 0000 803f 0000 803f
00000090: 0000 803f 0000 803f 0000 803f 0000 803f
000000a0: 0000 803f 0000 803f 0000 803f 0000 803f
000000b0: 0000 803f 0000 803f 0000 803f 0000 803f
000000c0: 0000 803f 0000 803f 0000 803f 0000 803f
000000d0: 0000 803f 0000 803f 0000 803f 0000 803f
000000e0: 0000 803f 0000 803f 0000 803f 0000 803f
000000f0: 0000 803f 0000 803f 0000 803f 0000 803f
1.0 1.0 1.0 1.0 1.0 1.0 1.0 1.0
1.0 1.0 1.0 1.0 1.0 1.0 1.0 1.0
1.0 1.0 1.0 1.0 1.0 1.0 1.0 1.0
1.0 1.0 1.0 1.0 1.0 1.0 1.0 1.0
1.0 1.0 1.0 1.0 1.0 1.0 1.0 1.0
1.0 1.0 1.0 1.0 1.0 1.0 1.0 1.0
1.0 1.0 1.0 1.0 1.0 1.0 1.0 1.0
1.0 1.0 1.0 1.0 1.0 1.0 1.0 1.0

encoder_layer.norm1.bias f4 [64]
00000000: 0000 0000 0000 0000 0000 0000 0000 0000
00000010: 0000 0000 0000 0000 0000 0000 0000 0000
00000020: 0000 0000 0000 0000 0000 0000 0000 0000
00000030: 0000 0000 0000 0000 0000 0000 0000 0000
00000040: 0000 0000 0000 0000 0000 0000 0000 0000
00000050: 0000 0000 0000 0000 0000 0000 0000 0000
00000060: 0000 0000 0000 0000 0000 0000 0000 0000
00000070: 0000 0000 0000 0000 0000 0000 0000 0000
00000080: 0000 0000 0000 0000 0000 0000 0000 0000
00000090: 0000 0000 0000 0000 0000 0000 0000 0000
000000a0: 0000 0000 0000 0000 0000 0000 0000 0000
000000b0: 0000 0000 0000 0000 0000 0000 0000 0000
000000c0: 0000 0000 0000 0000 0000 0000 0000 0000
000000d0: 0000 0000 0000 0000 0000 0000 0000 0000
000000e0: 0000 0000 0000 0000 0000 0000 0000 0000
000000f0: 0000 0000 0000 0000 0000 0000 0000 0000
0.0 0.0 0.0 0.0 0.0 0.0 0.0 0.0
0.0 0.0 0.0 0.0 0.0 0.0 0.0 0.0
0.0 0.0 0.0 0.0 0.0 0.0 0.0 0.0
0.0 0.0 0.0 0.0 0.0 0.0 0.0 0.0
0.0 0.0 0.0 0.0 0.0 0.0 0.0 0.0
0.0 0.0 0.0 0.0 0.0 0.0 0.0 0.0
0.0 0.0 0.0 0.0 0.0 0.0 0.0 0.0
0.0 0.0 0.0 0.0 0.0 0.0 0.0 0.0

encoder_layer.norm2.weight f4 [64]
00000000: 0000 803f 0000 803f 0000 803f 0000 803f
00000010: 0000 803f 0000 803f 0000 803f 0000 803f
00000020: 0000 803f 0000 803f 0000 803f 0000 803f
00000030: 0000 803f 0000 803f 0000 803f 0000 803f
00000040: 0000 803f 0000 803f 0000 803f 0000 803f
00000050: 0000 803f 0000 803f 0000 803f 0000 803f
00000060: 0000 803f 0000 803f 0000 803f 0000 803f
00000070: 0000 803f 0000 803f 0000 803f 0000 803f
00000080: 0000 803f 0000 803f 0000 803f 0000 803f
00000090: 0000 803f 0000 803f 0000 803f 0000 803f
000000a0: 0000 803f 0000 803f 0000 803f 0000 803f
000000b0: 0000 803f 0000 803f 0000 803f 0000 803f
000000c0: 0000 803f 0000 803f 0000 803f 0000 803f
000000d0: 0000 803f 0000 803f 0000 803f 0000 803f
000000e0: 0000 803f 0000 803f 0000 803f 0000 803f
000000f0: 0000 803f 0000 803f 0000 803f 0000 803f
1.0 1.0 1.0 1.0 1.0 1.0 1.0 1.0
1.0 1.0 1.0 1.0 1.0 1.0 1.0 1.0
1.0 1.0 1.0 1.0 1.0 1.0 1.0 1.0
1.0 1.0 1.0 1.0 1.0 1.0 1.0 1.0
1.0 1.0 1.0 1.0 1.0 1.0 1.0 1.0
1.0 1.0 1.0 1.0 1.0 1.0 1.0 1.0
1.0 1.0 1.0 1.0 1.0 1.0 1.0 1.0
1.0 1.0 1.0 1.0 1.0 1.0 1.0 1.0

encoder_layer.norm2.bias f4 [64]
00000000: 0000 0000 0000 0000 0000 0000 0000 0000
00000010: 0000 0000 0000 0000 0000 0000 0000 0000
00000020: 0000 0000 0000 0000 0000 0000 0000 0000
00000030: 0000 0000 0000 0000 0000 0000 0000 0000
00000040: 0000 0000 0000 0000 0000 0000 0000 0000
00000050: 0000 0000 0000 0000 0000 0000 0000 0000
00000060: 0000 0000 0000 0000 0000 0000 0000 0000
00000070: 0000 0000 0000 0000 0000 0000 0000 0000
00000080: 0000 0000 0000 0000 0000 0000 0000 0000
00000090: 0000 0000 0000 0000 0000 0000 0000 0000
000000a0: 0000 0000 0000 0000 0000 0000 0000 0000
000000b0: 0000 0000 0000 0000 0000 0000 0000 0000
000000c0: 0000 0000 0000 0000 0000 0000 0000 0000
000000d0: 0000 0000 0000 0000 0000 0000 0000 0000
000000e0: 0000 0000 0000 0000 0000 0000 0000 0000
000000f0: 0000 0000 0000 0000 0000 0000 0000 0000
0.0 0.0 0.0 0.0 0.0 0.0 0.0 0.0
0.0 0.0 0.0 0.0 0.0 0.0 0.0 0.0
0.0 0.0 0.0 0.0 0.0 0.0 0.0 0.0
0.0 0.0 0.0 0.0 0.0 0.0 0.0 0.0
0.0 0.0 0.0 0.0 0.0 0.0 0.0 0.0
0.0 0.0 0.0 0.0 0.0 0.0 0.0 0.0
0.0 0.0 0.0 0.0 0.0 0.0 0.0 0.0
0.0 0.0 0.0 0.0 0.0 0.0 0.0 0.0
